model.pth (torch, 6784 bytes, 3 tensors)

weight f4 [64, 12]
00000000: 4f29 d83e a671 68be f768 95bd 8054 443e
00000010: bada 3bbf 7ddc a6be 7b3c 003e 10b5 3cbe
00000020: ca35 883e 362f 773e 0eac 94be f4a0 e3bd
00000030: db4e f33e aa45 b53d 053d db3d fd11 f7bd
00000040: ad3b 83be b9c1 eebe 03b2 1f3e 9bdb 2abd
00000050: 2ed0 d43e e8f8 b8bd f5c1 1bbd f8f4 42be
00000060: a357 8c3d c130 abbe 1e4c 463e d154 6abd
00000070: 27a1 0b3e e2e1 1abf 4a1e a93d 66c0 9bbe
00000080: bf25 573e 3b62 0dbd b5ce 04bf ebb0 8dbe
00000090: 2925 71be 6018 14be 1e25 1abe b66e ce3e
000000a0: d876 91be 3ad1 8d3e 9cfb 1cbd e79d aabe
000000b0: 4d3d dcbd 5790 af3d d8e7 76be 5cd6 643e
000000c0: 1b58 0ebf 9222 483f 8e04 18bf 503d 603f
000000d0: adce cabe 4d95 1ebe 4d11 9b3e fb42 f5be
000000e0: a1df 12bf a688 3ebe 91ac e23d 3259 0bbf
000000f0: 8e58 bc3d aa4f 0abf a726 073f 88b4 d13d
00000100: 9f0e 163f 03af 68be c363 b73e 0b53 9c3e
00000110: e706 11bf 7351 023f 37c8 053f 3af4 ebbd
00000120: 92b1 c63e 5fc9 c0be 8428 783d 8614 9e3d
00000130: 4f53 bfbe d6d2 a4be 9037 983d 979f 9d3c
00000140: 4686 c13e 232c 83bc 8359 98bd de04 653e
00000150: 5ccd 253f 58e3 94be 2bb9 6cbe 0996 033d
00000160: a335 f73c 7f34 1dbe 16c7 743e d1d0 293e
00000170: 905b 463f 0586 bb3e e5c5 57bd 56ab a63e
00000180: 1657 30bb cdf5 6e3e e152 06bd d346 483f
00000190: 1dcb b3bf d50d fcbe 2a90 f53d 490b b5be
000001a0: f2d6 b2be 8108 093e d7f1 22be 6b9e 7abf
000001b0: f842 c53d fa66 0e3e c16c 29be b75d 363f
000001c0: 9989 8dbf c7af 86be ce1b dd3b c934 4d3e
000001d0: 270e 02bf e8dd 1ebe a8af 86be 88a3 f8be
000001e0: 401f 3f3d b5aa aa3e e1f9 d4bc ed1e 87be
000001f0: 54c4 f93d 2170 4b3e 0884 3dbf d725 b03e
00000200: 7a6c 1b3e 0e2e be3e 4fc1 193e 362f 24be
00000210: f9bf 093e c5e6 553e 86d7 863e d1a9 00bf
00000220: 61e1 003f 4302 31be 2fb9 063f 0eb2 ba3e
00000230: be6e febe 187f 053f 15b7 2d3f 0860 96be
00000240: 8bf9 e63d edd3 b43e 112c cbbe 846b 24bf
00000250: 1172 693e 4670 ea3d 9a0d 0dbf ba71 463f
00000260: c138 613d 35e2 cf3e 2b19 433d 9c7d 22bc
00000270: 86c7 833e 72ed 29be bcd9 2f3e 5794 26be
00000280: c510 10be 70bf 5cbe 4c68 07bd 2007 1bbf
00000290: fc07 a13e 2d9a 313d 6a5c ecbe 62d8 f6bb
000002a0: 5d71 dc3e 59c2 6e3e 0ef9 a03d 8b13 81be
000002b0: 183a 53bf f3ff c2be 8fdb 313d d691 06bf
000002c0: c34c b03e 6d21 893d 6f99 05be be19 d0bd
000002d0: 3f05 ea3d bf9c 433e 6c8e 8d3d 8c4e e2bd
000002e0: 1a38 f8bd 8e3e 0d3d 3eab a3bd f910 53bd
000002f0: 34ee a03e 2a0a c8bb c91e 3b3e 4b94 0c3d
00000300: 208b d7be b2d5 e93e 56e5 07bf c882 1f3f
00000310: 9cff bcbe d61b c4be 0218 d83e 07ac c4be
00000320: 26cb a5be aee8 95be a97b 4d3e bae0 17bf
00000330: ba47 2a3e 91ce 05bf d29f 09be 3740 293f
00000340: 69b8 4cbf 2387 42bd ffee 873e b9f8 1b3f
00000350: 907b 2a3f a017 d13e 72ea 12bf 31e6 213f
00000360: de83 1abe e5af 303e 7450 2a3e 5d34 183e
00000370: ec83 9f3e 831e f2bd 2a5b 67bf 3736 2e3f
00000380: 75e4 b23e 4c90 a83e d6e3 1d3e 3eff ef3c
00000390: 344d 323e bd1a f73d ba09 38bd 3711 79be
000003a0: ce32 18bf eb7a 29bf 02d1 6f3e 2085 c8be
000003b0: 13d1 e13d 99c1 3e3e 9e7e a8be 1b4a ccbd
000003c0: eb8c 403d fad1 80be 3fbb 5abd 8a1f 323e
000003d0: 73f7 37bf 000d 9abe 14ce dc3e 2156 10be
000003e0: add3 c13e 6746 303e 45d5 8cbe df1f f4be
000003f0: ce2a 17be 8181 b6be feef 34bb ae85 af3e
0.42219016 -0.22699603 -0.07295411 0.19172859 -0.73380625 -0.32590094 0.12523071 -0.18428445
0.26603538 0.24139103 -0.29037517 -0.11114684 0.475211 0.08851178 0.10704998 -0.12063978
-0.25631467 -0.46632174 0.1559525 -0.04171334 0.41565078 -0.0903185 -0.03802677 -0.1903876
0.06852653 -0.33435634 0.19364974 -0.057209793 0.13635693 -0.6050092 0.0825773 -0.30420226
0.21010493 -0.034517508 -0.5187791 -0.2767404 -0.23549332 -0.14462423 -0.15053222 0.4031884
-0.28410983 0.2769869 -0.03832589 -0.33323595 -0.1075388 0.085724525 -0.24111879 0.22347397
-0.5560319 0.7817775 -0.5938195 0.87593555 -0.39610806 -0.15486641 0.30286637 -0.47902665
-0.5737248 -0.18606815 0.11068071 -0.54432976 0.09196578 -0.5402781 0.52793354 0.10239512
0.5861606 -0.22723012 0.358183 0.30532107 -0.5665116 0.5090553 0.5225863 -0.11521192
0.3880735 -0.37653634 0.060585514 0.07718758 -0.37368247 -0.32192105 0.07432473 0.019241137
0.37797755 -0.016012257 -0.07438948 0.22365138 0.6476648 -0.290797 -0.23117511 0.032125507
0.030176943 -0.15352057 0.2390407 0.16583563 0.77483463 0.36625686 -0.05267896 0.32552594
-0.0026907376 0.23335953 -0.032793883 0.7823307 -1.404636 -0.49229303 0.11990388 -0.35360172
-0.34929615 0.1338215 -0.15912567 -0.97897977 0.09631914 0.1390647 -0.16545393 0.7123675
-1.1057616 -0.26305982 0.0067476993 0.20039667 -0.50802845 -0.15514338 -0.2630589 -0.48562264
0.04666066 0.33333364 -0.025998058 -0.26390782 0.1219565 0.19866993 -0.7402959 0.3440387
0.151781 0.37144512 0.15015148 -0.16033635 0.13452138 0.20888813 0.26336306 -0.5025912
0.503439 -0.17286019 0.5262632 0.3646397 -0.49693865 0.52147055 0.67857486 -0.2937014
0.11278065 0.35317937 -0.39682057 -0.64226556 0.22797419 0.11447196 -0.5509888 0.7751728
0.054985765 0.4060227 0.047631424 -0.009917643 0.25738162 -0.16594484 0.17172903 -0.16267525
-0.14068897 -0.21557403 -0.03305845 -0.60557747 0.31451404 0.043359924 -0.46164256 -0.007533119
0.4305524 0.23316325 0.078600034 -0.25210223 -0.8251052 -0.380859 0.043422278 -0.5256628
0.34433565 0.066958286 -0.13046812 -0.1016116 0.11426782 0.19102763 0.069119304 -0.11050138
-0.121200755 0.034483485 -0.07991646 -0.05152986 0.31431735 -0.0061047273 0.18273462 0.03432111
-0.4209833 0.4567085 -0.53084314 0.6230893 -0.36913764 -0.38302487 0.42205817 -0.38412496
-0.32381552 -0.29279083 0.20066704 -0.5932728 0.16628924 -0.5226832 -0.13439873 0.6611361
-0.7996889 -0.047492158 0.26549527 0.60926396 0.6659479 0.40838337 -0.57388985 0.6324187
-0.15089366 0.17254598 0.16632253 0.14863725 0.31155336 -0.11822226 -0.9037348 0.68051475
0.34939924 0.3292259 0.15418944 0.029296514 0.17412263 0.12065647 -0.04493115 -0.24322973
-0.5945252 -0.6620318 0.23419574 -0.39164066 0.11026206 0.18628539 -0.329091 -0.09975072
0.04700939 -0.251602 -0.053401228 0.17394844 -0.7186195 -0.30088043 0.43125975 -0.14095356
0.37856808 0.17214356 -0.27506462 -0.47680566 -0.14762422 -0.3564568 -0.0027608867 0.34281677

bias f4 [64]
00000000: 5d09 2f3f 7070 473d abf9 2d3f 59b8 c43c
00000010: eeed 1c39 21a9 96bd 7ffa cb3e 0f5b 823e
00000020: 89e6 2e3e cd62 9c3e ea51 72bd 00da 56bc
00000030: 80e8 0dbe c2a2 f13e f886 443e 2589 0e3e
00000040: 616f eabd a9f2 803c bcbf af3d 5b8d 8a3e
00000050: 3005 013e 3953 30be 031e 3abe 25f6 413f
00000060: a2f8 a03d b1b9 e33e 6982 c1bd e209 343d
00000070: f869 3f3e 93b1 b03e 8bf3 6cbd a9c6 603d
00000080: 95d2 a9be 9cb0 453e 76c0 853e 1342 c13d
00000090: 1fd4 1e3e ac7d 373e d29f b63d 2a1b 14be
000000a0: 373e 5c3e 90a9 91be e5cc 953e 8870 7d3b
000000b0: 4dab 983e 50a2 3dbd fe39 6e3e 302f 0abe
000000c0: 0ca5 5d3e afe1 853c 0f38 a13d 0eee 0a3f
000000d0: cb12 b13e 121f 0c3e 62b2 5d3e bd05 ea3e
000000e0: fa9c dcbe 3445 04be 2f13 c2bc 8242 bebe
000000f0: 193c ebbd 4856 6e3e 9b7c acbc 2aa5 50be
0.6837366 0.048691213 0.6795909 0.024013685 0.00014965955 -0.073564775 0.3983955 0.25460097
0.1708013 0.3054413 -0.05916015 -0.013113499 -0.13858223 0.47194487 0.19192111 0.13919504
-0.11447025 0.01574071 0.08581492 0.2706097 0.12599635 -0.17219247 -0.18175511 0.7576621
0.07859923 0.4447761 -0.09448702 0.043954737 0.18692768 0.34510478 -0.05784945 0.054876957
-0.33168474 0.19305652 0.261234 0.09436431 0.15510605 0.17919034 0.08917202 -0.14463487
0.21508108 -0.28449678 0.29257885 0.003867181 0.29818192 -0.04629737 0.2326431 -0.13494563
0.21644992 0.016342966 0.078720205 0.5426949 0.3458465 0.13683727 0.21650079 0.45707503
-0.43088514 -0.12917024 -0.023690788 -0.37160116 -0.11486072 0.23275101 -0.02105551 -0.20375505

weight f4 [1, 64]
00000000: f1d1 1d3f 9bf9 8f3e b421 ed3e 1aa3 d43d
00000010: 159f 963f 311c 14bf db50 ae3e e3bf b63e
00000020: ea9a 893f 1f5a cc3e 765c e4be b2f0 28bf
00000030: 29d6 07bf 60db a23e 29ed 143f 2f2a d33c
00000040: c56c 4b3f 09a9 3a3f c57f 1abf a3a6 ce3e
00000050: 6b18 003f 0fec a73e 25a6 eebe c51e e13e
00000060: 399d 9f3e b6bc 793e 7246 d7be 340d 0bbf
00000070: d513 8e3e 17ae 413f d7ff 67bf 4a03 37bf
00000080: bd4b 8dbe 10ce 8f3f 9406 1b3f 5302 673f
00000090: 2e23 893e 1378 093f 14cf 5c3e 0e96 23bf
000000a0: f1e8 c03e 686c 99be 0506 d43e ec08 2cbf
000000b0: 6e5c cc3e 7677 26bf dafc 303f ee33 2fbf
000000c0: c177 173f 34d9 f5be 84ad 15bf d007 533f
000000d0: 14b0 2d3f e077 b43e f935 923f 14dd 203f
000000e0: 5919 5e3f 7fb2 27bf 2a2c 33bf 03ae 713f
000000f0: 98f0 7ebe 3730 3a3e 5076 3abf 13f2 23bf
0.6164847 0.2812012 0.46314776 0.10382672 1.1767298 -0.57855517 0.34046063 0.35693273
1.0750401 0.39912507 -0.44601792 -0.6599227 -0.5306116 0.31807995 0.5817438 0.02577695
0.79462844 0.7291418 -0.6035121 0.4036151 0.5003726 0.32797286 -0.46611133 0.43968788
0.3117464 0.24388394 -0.42045933 -0.5431702 0.27749506 0.75656265 -0.90624756 -0.71489394
-0.27596846 1.123476 0.6055691 0.9023792 0.26784652 0.53698844 0.21563369 -0.6390084
0.3767772 -0.2996552 0.41410843 -0.67201114 0.39914268 -0.6502603 0.6913582 -0.68438613
0.59167105 -0.48017275 -0.5846789 0.82433796 0.678468 0.35247707 1.1422721 0.6283734
0.8675743 -0.6550674 -0.69989264 0.94406146 -0.24896467 0.18182455 -0.7283678 -0.6404125
